model/MNIST_model.pt (torch, 273286 bytes, 32 tensors)

conv1.weight f4 [10, 1, 5, 5]
0	0x3e870c46	0.2637655
1	0xbc293761	-0.010328145
2	0xbec5a9bc	-0.3860606
3	0xbef3a4f8	-0.475868
4	0xbd500bfa	-0.05079267
5	0xbdbbd9b7	-0.09172385
6	0xbf66a723	-0.9009878
7	0xbf89eccc	-1.077539
8	0xbf264309	-0.6494604
9	0x3d9695ac	0.073527664
10	0xbf93b27f	-1.1538848
11	0xbf92d45c	-1.1471057
12	0xbf0ad6ab	-0.5423381
13	0x3d6f9be6	0.058498286
14	0x3f16f4c8	0.58967257
15	0xbf96b42a	-1.1773732
16	0xbeefb817	-0.46820137
17	0x3e504751	0.20339705
18	0x3eb53bab	0.35397086
19	0x3f298622	0.66220295
20	0xbf006daa	-0.50167334
21	0xbbf9055b	-0.0075995154
22	0x3ef5dbfd	0.480194
23	0x3f465138	0.7746768
24	0x3f041392	0.5159236
25	0x3d9f23aa	0.07770474
26	0x3f0ee697	0.558206
27	0x3f4fabc9	0.811215
28	0x3f18e4e8	0.59724283
29	0x3db2be90	0.08727753
30	0xbd25609f	-0.04037535
31	0x3eae39d2	0.34028488
32	0x3f2c9b21	0.6742421
33	0x3f096bd5	0.53680164
34	0x3c97b388	0.018518224
35	0xbed7b5b6	-0.42130822
36	0xbe0fe65e	-0.14052722
37	0xbbe68ca2	-0.0070358077
38	0x3d20547f	0.03914308
39	0xbee59440	-0.44839668
40	0xbf1b3708	-0.60630846
41	0xbebf4811	-0.3735967
42	0xbebf59f8	-0.37373328
43	0x3d1daab1	0.038492862
44	0xbecc8ea3	-0.39952573
45	0xbf089da5	-0.53365546
46	0xbf33a8d1	-0.7017947
47	0xbebab090	-0.36462831
48	0xbea017ce	-0.31268162
49	0xbd7e273a	-0.062049128
50	0xbe90f6f3	-0.28313407
51	0xbd89e1a9	-0.067324944
52	0xbe78a153	-0.2428029
53	0x3e91788d	0.28412285
54	0x3ee59c11	0.44845632
55	0x3e830695	0.2559096
56	0x3edb7fde	0.42870992
57	0x3e9c95b4	0.30582964
58	0x3f19f97d	0.60146314
59	0x3eb87086	0.3602335
60	0x3eb86f0c	0.36022222
61	0x3f1bef5b	0.609121
62	0x3eed8151	0.46387723
63	0x3ebd9599	0.37028196
64	0x3eb42ed0	0.35191965
65	0x3df536e1	0.11973358
66	0xbe028889	-0.12747397
67	0xbe88c7bb	-0.26714882
68	0xbebf4390	-0.37356234
69	0xbec10e91	-0.37706426
70	0xbef86376	-0.48513383
71	0xbf093c27	-0.5360741
72	0xbf02d067	-0.51099247
73	0xbf46788d	-0.77527696
74	0xbf228d30	-0.63496685
75	0xbfb5ac38	-1.4193182
76	0xbf9ab69d	-1.2086979
77	0xbf5d4f54	-0.8644917
78	0xbef4826a	-0.47755748
79	0xbe7af906	-0.24509057
80	0xbf34063e	-0.70322025
81	0xbee459f0	-0.44599867
82	0xbed1f8aa	-0.41010028
83	0xbcf0933a	-0.029367078
84	0xbe7655e5	-0.24056204
85	0x3de27d4f	0.11059057
86	0x3e4d81b4	0.20069009
87	0x3e6ff1bb	0.23432057
88	0x3deb2032	0.1148075
89	0xbe295d6d	-0.16539545
90	0x3f35b2ce	0.7097596
91	0x3f1ffe9b	0.6249787
92	0x3eee7078	0.46570182
93	0x3d2b862a	0.041875996
94	0xbd617d89	-0.05505136
95	0x3f1a7723	0.6033804
96	0x3f0277e2	0.50964177
97	0x3e5183a9	0.2046038
98	0xbd746520	-0.059666753
99	0x3e15b637	0.1462029
100	0xbddfc9e7	-0.10927182
101	0xbd06932c	-0.032855198
102	0xbe482728	-0.19546187
103	0x3d21809e	0.0394293
104	0x3cb7bd49	0.022429125
105	0x3cdfae70	0.027304858
106	0x3d89f3d2	0.06735958
107	0xbd5ac058	-0.05340609
108	0xbc8d8c26	-0.017278742
109	0xbe094bcd	-0.13407822
110	0xbd79f4ec	-0.06102459
111	0xbe207265	-0.15668638
112	0xbdfa6a33	-0.12227287
113	0x3bc06fdd	0.00587271
114	0x3d1e6c25	0.038677353
115	0xbdb37087	-0.08761697
116	0x3cf76ab6	0.03020225
117	0xbe1caefa	-0.15301123
118	0xbe10a7f1	-0.14126565
119	0x3db2265a	0.08698721
120	0xbdec67da	-0.115432456
121	0xbc71d764	-0.014760826
122	0x3dc80e78	0.09768385
123	0xbe2392c7	-0.1597396
124	0xbe4bc548	-0.19899476
125	0xbe77ba6c	-0.24192208
126	0xbd0fe9c2	-0.03513504
127	0x3e67ff93	0.22656088
128	0xbdcba2c5	-0.09943155
129	0x3ddb41c8	0.10705906
130	0xbee168c8	-0.44025254
131	0x3e1cb6fa	0.15304175
132	0x3e41a8a7	0.18911992
133	0xbda55837	-0.08073466
134	0xbe05639e	-0.13026282
135	0x3e38aaef	0.18033956
136	0x3e504423	0.20338492
137	0x3da1ac75	0.07894222
138	0x3e96759c	0.29386604
139	0x3e89239d	0.26784983
140	0x3e0f0252	0.13965729
141	0x3e7880ae	0.24267837
142	0xbeaedda8	-0.34153485
143	0x3ee1ab0e	0.44075817
144	0x3f195ba9	0.5990549
145	0xbdf23a53	-0.11827531
146	0x3cd04a86	0.02542616
147	0xbf20d9af	-0.6283216
148	0x3dd3c143	0.10339596
149	0x3ef80e80	0.48448563
150	0xbc2e7235	-0.010647346
151	0x3e6a4163	0.22876506
152	0x3d89bd16	0.067255184
153	0x3d7e23e8	0.06204596
154	0x3e2ffa07	0.17185222
155	0x3d9aa101	0.0755024
156	0x3e5c79f2	0.21530893
157	0xbd6e17e7	-0.058128264
158	0xbf0e1344	-0.55498147
159	0xbee8b54a	-0.45450813
160	0xbe64fbfa	-0.22361746
161	0x3e83195f	0.25605294
162	0x3ce524b4	0.027971603
163	0xbe44997a	-0.19199172
164	0xbe2dd6ae	-0.16976425
165	0xbe985aae	-0.29756683
166	0x3e345808	0.17611706
167	0x3e30416c	0.17212456
168	0x3e9f296b	0.31086287
169	0x3def1b39	0.11675114
170	0xbd4bc343	-0.049746763
171	0x3e82b0b1	0.2552543
172	0x3e9a9e50	0.30198908
173	0x3d9a65d8	0.075389564
174	0x3ec8511d	0.39124385
175	0x3ec40bf0	0.38290358
176	0x3f4752c9	0.77860695
177	0x3ee96aea	0.4558938
178	0xbe520a6e	-0.20511791
179	0xbf261ce1	-0.64887816
180	0x3f0d322a	0.5515467
181	0x3f32e740	0.6988411
182	0xbde9453f	-0.11390161
183	0xbf35d5a9	-0.71029145
184	0xbf6f0e01	-0.93380743
185	0x3ed57a52	0.41694885
186	0x3e9b465a	0.3032711
187	0xbef30010	-0.47460985
188	0xbf14e1a8	-0.58156824
189	0xbf2d025d	-0.6758173
190	0x3ec4e5c5	0.3845655
191	0xbe32c0c9	-0.17456354
192	0xbee7f557	-0.45304367
193	0xbeedadb1	-0.4642158
194	0xbe4e60d2	-0.20154122
195	0x3e21eefa	0.15813819
196	0xbe2e4488	-0.1701833
197	0xbe72d77e	-0.23715016
198	0xbd87148e	-0.06595717
199	0xbd77f9ac	-0.06054084
200	0x3d519e20	0.05117619
201	0xbde48259	-0.11157674
202	0xbec187b9	-0.3779886
203	0xbeae881e	-0.34088224
204	0xbf10a09b	-0.56495064
205	0x3e4ddfd9	0.20104922
206	0x3dbd3a43	0.09239628
207	0xbe7c816c	-0.24658746
208	0xbf20a692	-0.62754166
209	0xbf9a6594	-1.2062249
210	0x3eab9990	0.33515596
211	0x3ed90f8e	0.4239468
212	0x3cba1b2d	0.022718037
213	0xbdcbf519	-0.09958858
214	0xbe85468d	-0.26030388
215	0x3e8d592e	0.276071
216	0x3ed53279	0.4164007
217	0x3ed35079	0.41272333
218	0x3f1e957d	0.6194685
219	0x3edf2aaf	0.43587252
220	0xbda15787	-0.07878023
221	0x3ebd359e	0.3695497
222	0x3e613e2d	0.21996374
223	0x3eef3175	0.4671742
224	0x3ee7c6e5	0.45268932
225	0x3e1c98bf	0.15292643
226	0x3e9e639f	0.3093538
227	0xbdebb8c7	-0.11509853
228	0xbe7ea9b6	-0.24869427
229	0xbe99a62f	-0.300096
230	0x3e073f4a	0.13207737
231	0x3eef6b45	0.46761528
232	0x3d1fa4b7	0.038975444
233	0xbed613b7	-0.41811916
234	0xbe8fcab4	-0.28084338
235	0x3ef3245d	0.4748868
236	0x3ec795c2	0.38981444
237	0xbde20d80	-0.11037731
238	0xbf005149	-0.5012403
239	0xbf05dc14	-0.5228894
240	0x3ed7c1c3	0.42140016
241	0x3f0d7003	0.5524904
242	0xbe7aea06	-0.24503335
243	0xbe67427f	-0.2258396
244	0xbe7e8946	-0.24857053
245	0x3ef89b09	0.48555782
246	0x3ef5afeb	0.47985777
247	0x3e883caf	0.26608798
248	0x3d32d92a	0.043664135
249	0x3d504771	0.05084938

conv1.bias f4 [10]
0	0x3eafd167	0.3433945
1	0x3d95712d	0.07296977
2	0x3bcc96c4	0.0062435586
3	0x3e5f2269	0.2179047
4	0xbe5bbc66	-0.21458587
5	0xbc515791	-0.012777225
6	0xbda967e5	-0.082717694
7	0xbe78698b	-0.24259011
8	0xbd84eea7	-0.06490832
9	0xbed78009	-0.4208987

conv2.weight f4 [20, 10, 5, 5]
0	0x3d8b7f0a	0.0681134
1	0x3ce5514e	0.02799287
2	0x3e9b621c	0.3034829
3	0x3e9d0a69	0.30672005
4	0x3e846f99	0.25866392
5	0x3ec705fd	0.38871756
6	0x3e8a6f5c	0.27038085
7	0x3e823870	0.25433683
8	0x3e8b9e5c	0.27269256
9	0x3ec9c249	0.3940604
10	0x3ec8bdc4	0.3920728
11	0x3d822a16	0.063556835
12	0x3e338bf4	0.17533857
13	0x3dd5f38e	0.10446845
14	0x3e3654eb	0.17805831
15	0x3e630fc7	0.22173987
16	0x3dd43c99	0.103631206
17	0x3e289ee0	0.16466856
18	0x3d9d1858	0.07670659
19	0xbef3a2ae	-0.47585052
20	0x3c96e7ed	0.018421138
21	0xbdbd4212	-0.092411175
22	0xbd51fbef	-0.051265653
23	0xbe8cf4c2	-0.27530485
24	0xbee54e26	-0.44786185
25	0x3cef89ca	0.029240508
26	0xbd3b93d2	-0.04579527
27	0xbedc72aa	-0.43056232
28	0xbf18d267	-0.5969605
29	0xbe20ba95	-0.15696175
30	0x3e58975a	0.21151486
31	0x3dce17fe	0.1006317
32	0xbf36fef2	-0.71482766
33	0xbd449f36	-0.048003398
34	0xbd1ac61b	-0.037786584
35	0xbd52e082	-0.05148364
36	0xbebb355f	-0.36564156
37	0xbe5db3c2	-0.21650603
38	0x3d1304c9	0.035893235
39	0x3e012611	0.12612177
40	0xbeaf9e49	-0.3430045
41	0xbed1024e	-0.4082207
42	0xbe8219e2	-0.25410372
43	0xbd4308e5	-0.047615904
44	0xbdeb3ed8	-0.11486596
45	0xbec6cf9d	-0.3883027
46	0xbe0fd55e	-0.14046237
47	0xbe94007e	-0.28906626
48	0xbcbcf649	-0.023066657
49	0xbda6b8e9	-0.081407376
50	0x3de9cedc	0.114164084
51	0xbda95896	-0.082688496
52	0xbece8429	-0.40335205
53	0xbe9e3c1c	-0.30905235
54	0x3d6d8bdd	0.057994712
55	0x3daae833	0.0834507
56	0xbd4c0f84	-0.049819484
57	0xbee8d289	-0.45473126
58	0x3cbe242e	0.023210611
59	0x3e5e53ad	0.21711607
60	0xbdba8d6e	-0.09109007
61	0xbef6bd6b	-0.4819139
62	0xbe72b8c4	-0.23703295
63	0x3c8af8e9	0.016964393
64	0x3e041c3f	0.129014
65	0xbea95d5b	-0.33079037
66	0xbe8e38e0	-0.27777767
67	0xbe5012b8	-0.2031964
68	0xbdbf2385	-0.09332947
69	0xbdbdec0d	-0.09273539
70	0xbe5cddf9	-0.21569051
71	0xbe8b65ec	-0.27226198
72	0xbe1afbba	-0.15135089
73	0xbd8d49cb	-0.068988405
74	0xbd54498b	-0.05182795
75	0xbdf4ec8d	-0.11959181
76	0xbe5829ab	-0.21109645
77	0xbf0f441e	-0.55963314
78	0x3e61a150	0.22034192
79	0x3d835ddc	0.06414387
80	0xbd8b5ac4	-0.068044215
81	0xbd274615	-0.04083832
82	0xbea16c7c	-0.3152808
83	0x3df9eff2	0.12203969
84	0x3e4b930a	0.1988031
85	0xbe44aaef	-0.19205831
86	0xbe269c7f	-0.16270636
87	0x3cab5197	0.020912929
88	0x3e00df84	0.12585264
89	0x3e0133bd	0.12617393
90	0xbe9eed55	-0.31040445
91	0xbe4e5b4a	-0.20152012
92	0x3d965002	0.07339479
93	0x3da76a6b	0.081745945
94	0xbd52807a	-0.051392056
95	0xbe0c3205	-0.13690956
96	0x3dbc72d4	0.09201589
97	0x3d591075	0.05299421
98	0xbe772aa5	-0.24137361
99	0xbed45a8a	-0.41475326
100	0x3d25e3be	0.040500395
101	0x3d097c0a	0.03356556
102	0xbd5ab4c6	-0.053395055
103	0x3d7a9634	0.0611784
104	0xbc4d4e30	-0.012530848
105	0x3d21739c	0.039416894
106	0x3c01c538	0.007920556
107	0xbd0e574e	-0.03475123
108	0xbd2ead8e	-0.042645983
109	0x3b7fffc0	0.003906235
110	0xbc85f80a	-0.016353626
111	0xbce0d6c0	-0.02744615
112	0x3c8495cc	0.01618471
113	0xbb1ce190	-0.0023938157
114	0xbc439fd8	-0.011939965
115	0x3d3e04b2	0.046391197
116	0xbd6c5a06	-0.05770304
117	0x3bf93930	0.0076056942
118	0x3ce0f4c0	0.027460456
119	0x3d7113cc	0.05885677
120	0x3d4253a8	0.047443062
121	0xbce675be	-0.028132316
122	0x3d88edbe	0.06685971
123	0xbd226436	-0.03964635
124	0x3d7481fe	0.059694283
125	0x3d6832b6	0.056688987
126	0xbe8b42b7	-0.27199337
127	0xbea51d66	-0.32248992
128	0xbeacc10e	-0.3374104
129	0xbca7acfd	-0.02046823
130	0xbdb880fa	-0.09008975
131	0xbeb453a6	-0.3522007
132	0xbdd22091	-0.10260118
133	0x3d8f4ab2	0.06996669
134	0x3c859252	0.016305123
135	0xbe2d5ac9	-0.16929163
136	0xbe8b6339	-0.27224138
137	0xbe0eec3f	-0.13957308
138	0xbdcbef8c	-0.09957799
139	0xbdbb1d14	-0.091364056
140	0xbc58b4ba	-0.013226682
141	0xbe65c6fc	-0.22439188
142	0x3c55e019	0.013053917
143	0x3d6ad4b8	0.05733177
144	0xbe28e7ba	-0.16494647
145	0x3db423e5	0.08795909
146	0xbdd9c6d3	-0.10633626
147	0x3be60e0a	0.0070207166
148	0x3d1d340c	0.038379714
149	0x3bc013c2	0.0058617303
150	0xbd20674f	-0.039161023
151	0xbda40bb9	-0.080100484
152	0xbdd29f41	-0.102842815
153	0xbe7426af	-0.23842882
154	0xbe70a13b	-0.23499005
155	0xbd8ab451	-0.06772674
156	0xbe066d46	-0.13127622
157	0xbede3da5	-0.43406406
158	0xbde08905	-0.109636344
159	0xbe2177f4	-0.15768415
160	0xbd20424b	-0.039125722
161	0xbde6d2bb	-0.112706624
162	0xbea2c419	-0.31790236
163	0xbd80fd43	-0.06298306
164	0xbd4bc94c	-0.04975252
165	0x3cc14666	0.023593139
166	0xbd831cd2	-0.064019814
167	0xbe801468	-0.2501557
168	0xbbe70ba4	-0.007050948
169	0x3cdbc7c6	0.026828658
170	0x3e352d33	0.17693023
171	0x3d141021	0.036148194
172	0xbe22a9bb	-0.1588506
173	0x3e2717b1	0.16317631
174	0x3e91266c	0.28349626
175	0x3e4012a7	0.18757115
176	0x3e91ddd1	0.28489545
177	0x3e781bb2	0.24229315
178	0xbe773482	-0.24141124
179	0xbe2792c5	-0.16364582
180	0x3e382f19	0.17986716
181	0x3e9c943e	0.3058185
182	0x3dfa2dd9	0.12215776
183	0xbd8dd58c	-0.069254965
184	0x3e05e0f9	0.13074102
185	0x3e18894c	0.14896125
186	0x3dcf6166	0.10125999
187	0x3c07d9f4	0.00829171
188	0x3e5ce0c8	0.21570122
189	0x3e65e5d1	0.22450949
190	0x3e08e358	0.13367975
191	0x3dd1afd0	0.10238612
192	0x3dbffe75	0.09374706
193	0x3db176c0	0.08665228
194	0x3e74ea9f	0.23917626
195	0x3d37193b	0.044701796
196	0x3cc0f608	0.023554817
197	0x3d46368d	0.048391867
198	0x3d3b9eb2	0.04580564
199	0xbe02c0d3	-0.12768869
200	0xbd22c35d	-0.039737094
201	0xbe12f189	-0.14349951
202	0x3d9d9e23	0.07696178
203	0xbe26a579	-0.1627406
204	0xbe7357f4	-0.2376402
205	0xbe23eb82	-0.16007808
206	0xbe21f829	-0.15817322
207	0xbe7a2ab5	-0.24430354
208	0xbd86cf69	-0.06582529
209	0xbdd31163	-0.10306051
210	0xbe4660e1	-0.19372894
211	0xbe20000f	-0.15625022
212	0xbe8dbdc9	-0.27683857
213	0xbd8b1b67	-0.06792336
214	0xbe40a166	-0.18811569
215	0xbd685900	-0.056725502
216	0xbe3c83bb	-0.18409626
217	0xbe61214a	-0.21985355
218	0xbc1b85f5	-0.009492387
219	0x3e38f264	0.18061215
220	0x3e490bc2	0.19633391
221	0xbd4b30a5	-0.049606938
222	0xbdfa0452	-0.12207855
223	0x3e5f1a8f	0.21787475
224	0x3ef02956	0.46906537
225	0x3e9f7cdb	0.31149945
226	0x3e6062f2	0.21912745
227	0x3e74000e	0.23828146
228	0xbedc76c0	-0.4305935
229	0xbe165179	-0.14679517
230	0x3d30135d	0.042987216
231	0x3e2e0ad7	0.16996323
232	0xbd5faace	-0.05460625
233	0xbe9ea3c0	-0.30984306
234	0xbd125364	-0.03572406
235	0x3d005a03	0.031335842
236	0x3d90a6f2	0.07063092
237	0xbea194a5	-0.3155872
238	0xbd8cd345	-0.06876234
239	0x3cf7b690	0.03023842
240	0x3d3b6259	0.04574809
241	0x3dfaab54	0.122397095
242	0x3cc5ec18	0.02416043
243	0x3e953f37	0.29149792
244	0x3e9f852d	0.31156293
245	0x3ee5337c	0.44765842
246	0x3ec087ff	0.37603757
247	0x3e9cb900	0.30609894
248	0x3eb07382	0.34463125
249	0x3e3e1d5b	0.18565886
250	0x3d865927	0.06559973
251	0x3de4a08d	0.11163435
252	0x3dc57bec	0.09642777
253	0x3e1fa06c	0.1558854
254	0xbd3a264b	-0.045446675
255	0x3daf4517	0.085581

conv2.bias f4 [20]
0	0xbd8e8adc	-0.06960079
1	0xbd9b37c7	-0.07578998
2	0xbdf43051	-0.11923278
3	0xbd869ce7	-0.065728955
4	0xbe361b56	-0.17783865
5	0x3d968766	0.07350044
6	0xbd0d84b7	-0.034550395
7	0xbdfdbe50	-0.12389815
8	0x3d2a3c7d	0.041561592
9	0xbe941461	-0.28921798
10	0x3d008339	0.031375144
11	0xbdf6e297	-0.12054937
12	0xba2027e2	-0.00061094586
13	0xbd4ef986	-0.050530933
14	0xbcafe1f7	-0.021470053
15	0x3c26599e	0.010153202
16	0xbe57a9a5	-0.21060808
17	0xbeaba8dd	-0.3352727
18	0x3da660e1	0.08123947
19	0xbda9d81f	-0.08293175

fc1.weight f4 [50, 320]
0	0x3e04a0be	0.12951943
1	0x3cdb3eb5	0.0267633
2	0xbe01db28	-0.12681258
3	0xbdf8c5c3	-0.12147095
4	0xbc9147d4	-0.017734446
5	0xbe1e1c6b	-0.15440528
6	0xbe5a22c9	-0.21302332
7	0xbd21170e	-0.039328627
8	0x3d29ad0c	0.041424796
9	0xbd17fb1c	-0.03710471
10	0x3e750170	0.2392633
11	0x3cb7fe78	0.022460207
12	0x3e4311ec	0.19049805
13	0x3e21d297	0.1580299
14	0xba972119	-0.001153025
15	0xbda7dd48	-0.08196503
16	0x3eae464d	0.3403801
17	0xbca1ae40	-0.01973641
18	0xbe4af093	-0.19818334
19	0x3dc455cd	0.09586678
20	0x3e447ba9	0.19187798
21	0x3e6da76c	0.23208398
22	0x3e4de749	0.2010776
23	0x3e0caeef	0.13738607
24	0xbceafb80	-0.028684378
25	0xbc059c4a	-0.008154938
26	0xbe2dc4c1	-0.16969587
27	0xbc92896a	-0.01788779
28	0xbd269c9b	-0.040676694
29	0xbc6193fb	-0.013768191
30	0xbe31d3ae	-0.17365906
31	0xbe623427	-0.22090207
32	0x3e02065a	0.12697735
33	0xbd5def18	-0.054183096
34	0xbe190f74	-0.14947301
35	0x3cb3328e	0.021874692
36	0xbd6fdddd	-0.058561195
37	0xbe0206a6	-0.12697849
38	0xbd72fe76	-0.059324704
39	0x3dccfb2c	0.10008845
40	0x3cb7d72e	0.022441473
41	0xbdd6294b	-0.10457095
42	0x3d9f55f2	0.07780065
43	0x3d46b794	0.048514917
44	0x3e5c159c	0.21492618
45	0xbd604a7c	-0.054758534
46	0x3e0c31fd	0.13690944
47	0xbd2b5a6b	-0.041834276
48	0xbb71a001	-0.0036869051
49	0x3dc6b1c7	0.09701877
50	0xbe1d5b67	-0.15366898
51	0x3df6e256	0.12054889
52	0x3dbbb0ae	0.09164558
53	0x3e0224de	0.12709376
54	0xbdd525cd	-0.104076006
55	0x3d813310	0.063085675
56	0xbe4c0f58	-0.19927728
57	0x3d29d2be	0.041460745
58	0x3d1d0de3	0.03834332
59	0x3e4e2eca	0.20135036
60	0xbe123b7c	-0.14280504
61	0xbe783f78	-0.24242961
62	0xbd3ecab3	-0.046580028
63	0xbc25b084	-0.010112885
64	0x3d8b928d	0.06815062
65	0xbe36cdc3	-0.1785193
66	0xbee8a2e4	-0.45436776
67	0xbd98fa8d	-0.07469664
68	0x3e2a1fa7	0.16613637
69	0x3e1353bc	0.14387411
70	0x3b84c73e	0.004052072
71	0x3d25972a	0.040427364
72	0x3e3cc9d4	0.18436366
73	0x3db5f5eb	0.08884796
74	0xbb5936d2	-0.0033144248
75	0x3e1134b1	0.14180256
76	0x3c8aac9c	0.01692801
77	0x3cb28586	0.021792185
78	0xbde2f477	-0.11081784
79	0xbdb71251	-0.089390405
80	0xbeb4c1fc	-0.35304248
81	0x3de8bf46	0.113646075
82	0x3e6fb5fe	0.23409268
83	0xbd2fdfab	-0.042937916
84	0xbcddab78	-0.027059302
85	0x3e1797c7	0.14803992
86	0x3e5fb825	0.2184759
87	0x3e952d53	0.29136142
88	0x3ab50734	0.0013811351
89	0xbe5edf0a	-0.2176477
90	0x3e8b650c	0.2722553
91	0x3df4096e	0.11915861
92	0xbe5094bd	-0.20369239
93	0xbe299311	-0.16560008
94	0x3c6af7ab	0.014341275
95	0x3d2f485c	0.042793617
96	0x3e8e0422	0.27737528
97	0xbc8e5b7a	-0.017377604
98	0xbe46f262	-0.19428399
99	0xbe15cbea	-0.14628568
100	0x3c684bce	0.0141782295
101	0x3de71852	0.112839356
102	0xbd9007ab	-0.070327125
103	0xbd223ff9	-0.03961179
104	0x3d34beef	0.0441274
105	0x3e9a0377	0.30080768
106	0x3d3c95a2	0.04604114
107	0xbd510955	-0.05103429
108	0x3e1340b0	0.14380145
109	0x3e58311c	0.21112484
110	0x3cd86a90	0.026418
111	0x3dbf64d5	0.09345404
112	0x3e9b9bb0	0.30392218
113	0x3e6db3b4	0.23213083
114	0xbd096ed4	-0.03355296
115	0xbde1632f	-0.11005246
116	0x3d91819f	0.071048014
117	0x3e0eaaa8	0.13932288
118	0xbdb12486	-0.086495444
119	0xbe99137f	-0.29897687
120	0xbe66a3e3	-0.22523455
121	0x3c932690	0.017962724
122	0x3d6d2040	0.057892084
123	0x3e6b7805	0.22995003
124	0xbe4ca789	-0.19985785
125	0x3e7c9134	0.24664766
126	0x3e434c15	0.19071992
127	0xbd396755	-0.04526456
128	0xbe0b8985	-0.13626678
129	0xbea1b621	-0.31584266
130	0x3d5ad42a	0.05342499
131	0xbe1bedf0	-0.15227485
132	0xbd809b32	-0.06279601
133	0xbe0937e4	-0.13400227
134	0x3d440002	0.04785157
135	0x3de9fefe	0.11425589
136	0x3e6a46f3	0.22878627
137	0xbe6b2aa1	-0.2296548
138	0x3df824ae	0.12116371
139	0x3e5db75c	0.21651977
140	0x3d66ca44	0.05634524
141	0xbe34db71	-0.17661835
142	0x3e34cd38	0.1765641
143	0x3df59947	0.11992126
144	0xbdde4dab	-0.10854658
145	0xbd3579fe	-0.044305794
146	0x3e7e2f22	0.24822667
147	0x3e21b8ab	0.15793101
148	0xbe280360	-0.16407537
149	0xbeb5cf93	-0.3550993
150	0xbe104af8	-0.14091098
151	0xbe905539	-0.2819002
152	0x3ca75f49	0.020431178
153	0xbdaa4c90	-0.083153844
154	0xbde3d895	-0.11125294
155	0xbe005b7b	-0.12534897
156	0xbe446b45	-0.19181545
157	0xbde6d618	-0.11271304
158	0x3dddd8ab	0.10832342
159	0xbcf3d238	-0.029763326
160	0x3d0017f6	0.03127285
161	0x3cb20bca	0.021734137
162	0xbe622813	-0.220856
163	0xbe2d86ab	-0.16945903
164	0xbd7713cf	-0.060321625
165	0x3d1f417e	0.038880818
166	0xbdedfa90	-0.11620057
167	0x3d15de4d	0.036588956
168	0x3d1b0bbf	0.037853
169	0x3da10413	0.07862105
170	0x3e15b45b	0.14619581
171	0x3cccd394	0.025003232
172	0xbe4bae85	-0.19890793
173	0xbe32039e	-0.17384192
174	0x3ec0d9ba	0.37666112
175	0x3ddac22a	0.10681565
176	0x3cb19759	0.021678613
177	0xbc90dd96	-0.017683785
178	0xbe8bb84d	-0.27289048
179	0x3c11eb8d	0.008906257
180	0xbcbd3001	-0.02309418
181	0xbdcf1a7c	-0.10112473
182	0xbe4a4f4c	-0.19756812
183	0x3d659dd8	0.056058735
184	0xbc6d1c66	-0.014472103
185	0xbcfd9ef2	-0.03095958
186	0x3d72e987	0.05930474
187	0x3d85f151	0.06540168
188	0x3e28ada7	0.16472493
189	0xbd9fee7f	-0.078091614
190	0xbd7c60f8	-0.061615914
191	0x3d4685d9	0.04846749
192	0xbd2b14c7	-0.04176786
193	0xbd0e1f22	-0.03469766
194	0xbe906f8b	-0.282101
195	0xbe9fb8db	-0.3119572
196	0xbea6f52b	-0.32608923
197	0xbe6b1a92	-0.22959355
198	0x3e054e7a	0.13018218
199	0xbdefc252	-0.117069855
200	0xbdb85487	-0.09000497
201	0x3dbaa099	0.09112663
202	0x3e90a9cd	0.28254548
203	0x3dcbeea1	0.09957624
204	0xbd9998f9	-0.0749988
205	0xbd86d4bd	-0.06583545
206	0xbd022684	-0.031775013
207	0x3e0e4fe4	0.13897663
208	0x3cdc242a	0.026872713
209	0xbbd005e4	-0.0063483585
210	0x3ab5a0de	0.0013857146
211	0x3cb41524	0.021982737
212	0x3c79d4cd	0.01524849
213	0xbb637e40	-0.0034712702
214	0x3bede6cc	0.007260179
215	0x3d15b9b5	0.036554057
216	0x3d1af760	0.03783357
217	0x3cdae174	0.026718833
218	0xbd1afdd2	-0.03783972
219	0xbceaacaf	-0.028646795
220	0xbd28a63c	-0.04117416
221	0x3cc6b818	0.024257705
222	0xbd3dc9bf	-0.04633498
223	0xbd0305be	-0.031987898
224	0xbe659b26	-0.22422466
225	0x3df865dc	0.12128803
226	0x3beefc1d	0.007293238
227	0xbb66c68a	-0.0035213553
228	0x3e0142c9	0.12623133
229	0xbde44760	-0.11146426
230	0x3d8d60cf	0.069032304
231	0x3f0bc011	0.54589945
232	0xbd23e4a2	-0.040012963
233	0xbe481dbd	-0.19542594
234	0x3e09c909	0.13455595
235	0x3e928993	0.28620586
236	0xbdaae461	-0.08344341
237	0xbe8e8d3c	-0.27842128
238	0xbe1e4ab7	-0.15458189
239	0xbd0da86d	-0.03458445
240	0xbdf7fdea	-0.12108977
241	0x3dd8d975	0.10588352
242	0x3e736d39	0.23772134
243	0x3eec5e64	0.46165764
244	0x3de3823f	0.11108827
245	0xbe428c40	-0.18998814
246	0xbc2e686c	-0.010645013
247	0x3e6f530b	0.23371522
248	0xbe73f293	-0.23823003
249	0xbe19cd6b	-0.15019767
250	0xbdb7bc36	-0.08971445
251	0xbe1dc086	-0.15405473
252	0x3ac8b7aa	0.0015313525
253	0x3e13d545	0.14436825
254	0x3c5f94c2	0.0136463065
255	0xbe600bd4	-0.21879512

fc1.bias f4 [50]
0	0x3b9ea36c	0.0048412587
1	0x3b72fe09	0.0037077686
2	0xbe588114	-0.2114299
3	0x3db4157b	0.087931596
4	0xbe2790e9	-0.16363873
5	0x3d11c4c4	0.03558804
6	0xbe22ceab	-0.1589915
7	0x3d7aa79c	0.061195
8	0x3d7d4a9b	0.061838727
9	0xbcfcf0d6	-0.030876558
10	0xbd61e4aa	-0.05514971
11	0x3e0ce42e	0.13758919
12	0x3cf33ed6	0.029693048
13	0xbdbb2bec	-0.09139237
14	0x3e065efb	0.1312217
15	0xbe1221fb	-0.14270775
16	0xbdd93d01	-0.10607339
17	0xbe2cfc83	-0.168932
18	0xbdd914de	-0.10599683
19	0xbc50f06c	-0.012752634
20	0xbdd401a8	-0.103518784
21	0xbde84470	-0.113411784
22	0x3d5d9bd7	0.0541037
23	0x3e76bad7	0.24094711
24	0xbdbb12a5	-0.091344155
25	0x3e95b440	0.29239082
26	0x3ce93cc1	0.028471353
27	0xbe36947c	-0.1783008
28	0xbe2a5ee0	-0.16637754
29	0xbe3cadcb	-0.18425672
30	0xbdd89168	-0.10574609
31	0x3dc0146a	0.09378894
32	0xbc568c49	-0.01309497
33	0x3ccc8134	0.024963953
34	0x3c8c0dd3	0.017096436
35	0x3e26617f	0.1624813
36	0x3da6ecb9	0.0815062
37	0xbd535921	-0.05159867
38	0x3e5b5f93	0.21423177
39	0xbe82faf6	-0.25582093
40	0x3e122368	0.14271319
41	0x3dd8dc16	0.10588853
42	0x3e39b3f7	0.18135057
43	0xbd18eddb	-0.03733621
44	0x3e948b35	0.29012457
45	0x3e003647	0.12520705
46	0x3dbf033b	0.09326788
47	0x3d0b2c90	0.033978045
48	0x3e5466a3	0.20742278
49	0xbcd50147	-0.026001586

fc2.weight f4 [10, 50]
0	0x3e2bbd07	0.16771327
1	0xbe8cc51b	-0.2749413
2	0x3e58bb5d	0.21165223
3	0x3e739923	0.23788886
4	0x3e933846	0.2875387
5	0x3d8c6bd7	0.06856506
6	0x3e48061c	0.1953358
7	0xbe29bdd4	-0.1657632
8	0x3e7ffe62	0.24999383
9	0x3e79ba03	0.24387364
10	0x3e365fde	0.17810008
11	0x3e555e0c	0.20836657
12	0xbee437be	-0.44573778
13	0xbc1f8c89	-0.009738096
14	0xbeb45225	-0.3521892
15	0xbea66c4f	-0.32504508
16	0xbec4de4b	-0.38450846
17	0x3d9b04a1	0.07569242
18	0xbc529864	-0.012853716
19	0xbe3ef325	-0.1864744
20	0xbefe987b	-0.49725708
21	0x3e4688f7	0.19388185
22	0xbebe7fce	-0.37206882
23	0xbe4eb0f0	-0.20184684
24	0xbeddf18e	-0.43348354
25	0xbe3364e4	-0.17518955
26	0xbe2b2783	-0.16714291
27	0xbe6b4d06	-0.22978601
28	0x3e149e90	0.14513612
29	0xbeb0b08b	-0.34509692
30	0x3e0658e0	0.1311984
31	0xbeec89da	-0.46198922
32	0xbe706e83	-0.23479657
33	0x3e3cc880	0.1843586
34	0x3e3b1621	0.1827016
35	0xbd700dd2	-0.05860693
36	0xbed10d22	-0.40830332
37	0xbef739e5	-0.48286358
38	0xbe542522	-0.2071729
39	0xbdfb0324	-0.122564584
40	0xbea2dbf0	-0.31808424
41	0xbe3e8f15	-0.18609269
42	0xbe8a0f56	-0.26964825
43	0xbe494ad3	-0.1965745
44	0xbed84207	-0.42237875
45	0xbe0614ab	-0.13093822
46	0xbea4587a	-0.32098752
47	0x3ec2caa9	0.38045242
48	0xbe8818e0	-0.26581478
49	0x3e63827c	0.22217745
50	0xbec86a45	-0.39143577
51	0x3e4917a7	0.19637929
52	0xbec28e61	-0.3799925
53	0xbeda8636	-0.4268052
54	0xbee41eaa	-0.44554645
55	0xbe61fd87	-0.2206937
56	0xbe914f59	-0.2838085
57	0x3e1eefff	0.15521239
58	0xbea7fd3b	-0.32810387
59	0xbe876e87	-0.26451513
60	0xbeee7d9c	-0.46580207
61	0x3e663a72	0.22483233
62	0x3dda079d	0.10645983
63	0xbe77fa8d	-0.24216671
64	0x3e879bbf	0.26486012
65	0xbe71e1a5	-0.23621233
66	0xbea1f2ab	-0.31630453
67	0xbd81de8c	-0.063412756
68	0xbf0a4b0d	-0.5402077
69	0x3e5a546b	0.21321265
70	0xbe535370	-0.20637298
71	0xbef559b1	-0.47919992
72	0xbe95cdfa	-0.2925871
73	0x3e658ad2	0.22416237
74	0xbe82af02	-0.25524145
75	0x3ed03291	0.4066358
76	0xbecd7e77	-0.40135548
77	0xbee57617	-0.44816658
78	0xbefb311f	-0.49060914
79	0xbe61fc1d	-0.2206883
80	0xbeef0274	-0.4668156
81	0x3d8a803b	0.06762739
82	0xbe6a580c	-0.2288515
83	0xbdbcfd0d	-0.09227953
84	0xbe788e35	-0.24272998
85	0x3eabf944	0.33588612
86	0x3dbc8e48	0.092068255
87	0xbf0a5043	-0.5402872
88	0x3d415585	0.0472007
89	0xbd9f9a29	-0.077930756
90	0x3e05bc82	0.13060191
91	0xbe7b23ec	-0.24525422
92	0x3e077025	0.13226373
93	0xbcc970af	-0.024589865
94	0x3eb687b0	0.35650396
95	0x3e68637e	0.22694203
96	0x3df5b908	0.119981825
97	0x3e682f76	0.22674355
98	0x3e849fa1	0.25903037
99	0xbea7f46a	-0.3280366
100	0xbe82eddf	-0.25572106
101	0xbe96b598	-0.2943542
102	0xbed5184d	-0.41620103
103	0xbd771c70	-0.060329854
104	0x3eb016be	0.3439235
105	0xbe00c98a	-0.12576881
106	0x3e6cae6e	0.23113415
107	0x3e4c1b07	0.19932185
108	0x3d2b976b	0.04189245
109	0xbe242258	-0.16028726
110	0x3e4a2ab5	0.19742854
111	0xbccd0bd3	-0.025030052
112	0xbec41242	-0.3829518
113	0xbe53b771	-0.20675446
114	0xbdb405b1	-0.08790148
115	0xbec8ef40	-0.39245033
116	0xbea0b6fa	-0.313896
117	0x3e8c643e	0.2742023
118	0xbee5097c	-0.44733799
119	0x3e54de08	0.20787823
120	0xbef2939f	-0.4737825
121	0xbee37742	-0.44426924
122	0xbe8f6456	-0.28006238
123	0x3e4b88b8	0.19876373
124	0xbd7595ae	-0.0599572
125	0xbe7be0f6	-0.24597535
126	0xbe87b7b4	-0.26507342
127	0xbe38cd39	-0.18047036
128	0xbf0806f0	-0.53135586
129	0x3e609bda	0.21934453
130	0xbe80c8eb	-0.25153288
131	0xbeee9a01	-0.4660187
132	0xbeaae8c6	-0.33380717
133	0xbe8026cd	-0.25029603
134	0x3e91e673	0.2849613
135	0xbd74e00a	-0.059783973
136	0xbd830d49	-0.06399018
137	0xbdcc423e	-0.09973572
138	0x3c90e991	0.017689498
139	0xbf03fd08	-0.5155797
140	0x3e71644f	0.23573421
141	0xbe7bf19f	-0.2460389
142	0xbe6dec87	-0.2323476
143	0x3e8b4517	0.2720115
144	0x3e40ffd8	0.18847597
145	0x3d83e721	0.06440569
146	0x3e142d27	0.14470349
147	0xbdcc9e8f	-0.0999118
148	0x3e25e5c2	0.16200927
149	0x3e617b94	0.22019798
150	0xbe20d1a7	-0.15704976
151	0x3e830039	0.25586107
152	0xbdc86915	-0.09785668
153	0xbe8154f8	-0.2526014
154	0xbe60a592	-0.2193816
155	0xbc975281	-0.018471958
156	0x3dfd2694	0.12360874
157	0x3e396ca1	0.18107845
158	0x3e4553aa	0.19270197
159	0xbeb24cac	-0.3482412
160	0x3dd4a9dd	0.10383961
161	0xbbe6cb96	-0.0070433123
162	0xbedd92cf	-0.4327607
163	0xbe1f961d	-0.15584607
164	0x3e7aca88	0.24491322
165	0x3de60a16	0.112323925
166	0xbb1b19b1	-0.0023666436
167	0xbe7f7d63	-0.24950175
168	0xbed8048f	-0.42190978
169	0xbd2bc0ff	-0.041932102
170	0x3e229cfd	0.15880199
171	0xbe8a38d7	-0.2699649
172	0xbe90d4bf	-0.28287312
173	0xbe043281	-0.1290989
174	0xbe05623c	-0.13025755
175	0xbe31c9d4	-0.17362148
176	0xbf022a60	-0.5084591
177	0xbcfcda8e	-0.030865934
178	0xbea2f332	-0.31826168
179	0x3e470d89	0.19438757
180	0x3e14fe8c	0.14550227
181	0x3e09ebe5	0.13468893
182	0x3e760ef3	0.2402914
183	0xbeab699b	-0.33479008
184	0xbe6bb6d0	-0.23018956
185	0x3e8df84d	0.277285
186	0xbe8f8442	-0.28030592
187	0xbee1150e	-0.43961376
188	0xbe2e7385	-0.17036255
189	0xbe4401f2	-0.19141367
190	0xbe9ceac6	-0.30647868
191	0x3e2951a2	0.16535047
192	0xbee3bb4d	-0.44478837
193	0x3e20c185	0.15698822
194	0xbe91069c	-0.28325355
195	0xbee6acd8	-0.45053744
196	0x3e0812de	0.13288447
197	0xbe506c34	-0.20353776
198	0xbeaf07b7	-0.34185573
199	0x3e5f1b47	0.21787749
200	0xbe8ced09	-0.27524593
201	0xbe87ea9f	-0.2654619
202	0xbece3417	-0.40274116
203	0xbeba4f00	-0.36388397
204	0xbdadbbef	-0.08483111
205	0xbeacd737	-0.33757946
206	0xbe01afd0	-0.12664723
207	0xbe60ff78	-0.21972454
208	0xbf015125	-0.5051444
209	0x3e90403b	0.28174004
210	0x3dada07a	0.08477874
211	0xbe7319ce	-0.23740312
212	0x3e392871	0.18081833
213	0xbcbd20b5	-0.023086885
214	0x3e6879ef	0.22702764
215	0xbdf94535	-0.12171403
216	0x3e676cf1	0.22600152
217	0xbe6a24ec	-0.22865647
218	0x3db39e0d	0.0877038
219	0x3e2b927b	0.16755097
220	0x3de221a9	0.110415764
221	0xbe8be964	-0.273265
222	0x3e0eef62	0.13958505
223	0xbe8825f1	-0.26591447
224	0xbeb70c68	-0.35751653
225	0x3b7c6bbe	0.0038516368
226	0x3e257d6b	0.16161124
227	0xbe389554	-0.18025714
228	0x3e1cc719	0.15310325
229	0x3e04bc0d	0.1296236
230	0xbf12199e	-0.5707034
231	0x3e2a5668	0.16634524
232	0xbe863fce	-0.26220554
233	0xbeb9898c	-0.36237752
234	0xbe2667fe	-0.16250607
235	0xbe9bfcc7	-0.3046629
236	0x3e781e34	0.24230272
237	0x3e810ca1	0.25204948
238	0xbe8a3bdc	-0.26998794
239	0xbdc2925f	-0.09500574
240	0xbe2a797c	-0.16647905
241	0xbe15e23d	-0.14637084
242	0x3e24f47d	0.1610889
243	0xbed9a5e7	-0.42509386
244	0xbe0207a3	-0.12698226
245	0x3e4efab9	0.2021283
246	0xbe4b0af3	-0.19828396
247	0xbeb01210	-0.3438878
248	0x3e579c4a	0.21055713
249	0xbc460a45	-0.012087409
250	0x3e216ccd	0.1576416
251	0x3d0eddad	0.034879375
252	0x3e4e419e	0.20142218
253	0xbe64c639	-0.22341241
254	0xbf09e5cf	-0.53866285
255	0x3e2f56d1	0.17122962

fc2.bias f4 [10]
0	0xbdcf151b	-0.101114474
1	0x3f87c2e8	1.0606356
2	0x3d9020eb	0.070375286
3	0x3e188815	0.14895661
4	0xbede1911	-0.433785
5	0xbf3496a4	-0.7054236
6	0xbf028899	-0.5098968
7	0xbecfe6ee	-0.40605873
8	0x3f3d55be	0.7395896
9	0x3d84fe03	0.064937614

state f4 [10, 1, 5, 5]
0	0x3e870c46	0.2637655
1	0xbc293761	-0.010328145
2	0xbec5a9bc	-0.3860606
3	0xbef3a4f8	-0.475868
4	0xbd500bfa	-0.05079267
5	0xbdbbd9b7	-0.09172385
6	0xbf66a723	-0.9009878
7	0xbf89eccc	-1.077539
8	0xbf264309	-0.6494604
9	0x3d9695ac	0.073527664
10	0xbf93b27f	-1.1538848
11	0xbf92d45c	-1.1471057
12	0xbf0ad6ab	-0.5423381
13	0x3d6f9be6	0.058498286
14	0x3f16f4c8	0.58967257
15	0xbf96b42a	-1.1773732
16	0xbeefb817	-0.46820137
17	0x3e504751	0.20339705
18	0x3eb53bab	0.35397086
19	0x3f298622	0.66220295
20	0xbf006daa	-0.50167334
21	0xbbf9055b	-0.0075995154
22	0x3ef5dbfd	0.480194
23	0x3f465138	0.7746768
24	0x3f041392	0.5159236
25	0x3d9f23aa	0.07770474
26	0x3f0ee697	0.558206
27	0x3f4fabc9	0.811215
28	0x3f18e4e8	0.59724283
29	0x3db2be90	0.08727753
30	0xbd25609f	-0.04037535
31	0x3eae39d2	0.34028488
32	0x3f2c9b21	0.6742421
33	0x3f096bd5	0.53680164
34	0x3c97b388	0.018518224
35	0xbed7b5b6	-0.42130822
36	0xbe0fe65e	-0.14052722
37	0xbbe68ca2	-0.0070358077
38	0x3d20547f	0.03914308
39	0xbee59440	-0.44839668
40	0xbf1b3708	-0.60630846
41	0xbebf4811	-0.3735967
42	0xbebf59f8	-0.37373328
43	0x3d1daab1	0.038492862
44	0xbecc8ea3	-0.39952573
45	0xbf089da5	-0.53365546
46	0xbf33a8d1	-0.7017947
47	0xbebab090	-0.36462831
48	0xbea017ce	-0.31268162
49	0xbd7e273a	-0.062049128
50	0xbe90f6f3	-0.28313407
51	0xbd89e1a9	-0.067324944
52	0xbe78a153	-0.2428029
53	0x3e91788d	0.28412285
54	0x3ee59c11	0.44845632
55	0x3e830695	0.2559096
56	0x3edb7fde	0.42870992
57	0x3e9c95b4	0.30582964
58	0x3f19f97d	0.60146314
59	0x3eb87086	0.3602335
60	0x3eb86f0c	0.36022222
61	0x3f1bef5b	0.609121
62	0x3eed8151	0.46387723
63	0x3ebd9599	0.37028196
64	0x3eb42ed0	0.35191965
65	0x3df536e1	0.11973358
66	0xbe028889	-0.12747397
67	0xbe88c7bb	-0.26714882
68	0xbebf4390	-0.37356234
69	0xbec10e91	-0.37706426
70	0xbef86376	-0.48513383
71	0xbf093c27	-0.5360741
72	0xbf02d067	-0.51099247
73	0xbf46788d	-0.77527696
74	0xbf228d30	-0.63496685
75	0xbfb5ac38	-1.4193182
76	0xbf9ab69d	-1.2086979
77	0xbf5d4f54	-0.8644917
78	0xbef4826a	-0.47755748
79	0xbe7af906	-0.24509057
80	0xbf34063e	-0.70322025
81	0xbee459f0	-0.44599867
82	0xbed1f8aa	-0.41010028
83	0xbcf0933a	-0.029367078
84	0xbe7655e5	-0.24056204
85	0x3de27d4f	0.11059057
86	0x3e4d81b4	0.20069009
87	0x3e6ff1bb	0.23432057
88	0x3deb2032	0.1148075
89	0xbe295d6d	-0.16539545
90	0x3f35b2ce	0.7097596
91	0x3f1ffe9b	0.6249787
92	0x3eee7078	0.46570182
93	0x3d2b862a	0.041875996
94	0xbd617d89	-0.05505136
95	0x3f1a7723	0.6033804
96	0x3f0277e2	0.50964177
97	0x3e5183a9	0.2046038
98	0xbd746520	-0.059666753
99	0x3e15b637	0.1462029
100	0xbddfc9e7	-0.10927182
101	0xbd06932c	-0.032855198
102	0xbe482728	-0.19546187
103	0x3d21809e	0.0394293
104	0x3cb7bd49	0.022429125
105	0x3cdfae70	0.027304858
106	0x3d89f3d2	0.06735958
107	0xbd5ac058	-0.05340609
108	0xbc8d8c26	-0.017278742
109	0xbe094bcd	-0.13407822
110	0xbd79f4ec	-0.06102459
111	0xbe207265	-0.15668638
112	0xbdfa6a33	-0.12227287
113	0x3bc06fdd	0.00587271
114	0x3d1e6c25	0.038677353
115	0xbdb37087	-0.08761697
116	0x3cf76ab6	0.03020225
117	0xbe1caefa	-0.15301123
118	0xbe10a7f1	-0.14126565
119	0x3db2265a	0.08698721
120	0xbdec67da	-0.115432456
121	0xbc71d764	-0.014760826
122	0x3dc80e78	0.09768385
123	0xbe2392c7	-0.1597396
124	0xbe4bc548	-0.19899476
125	0xbe77ba6c	-0.24192208
126	0xbd0fe9c2	-0.03513504
127	0x3e67ff93	0.22656088
128	0xbdcba2c5	-0.09943155
129	0x3ddb41c8	0.10705906
130	0xbee168c8	-0.44025254
131	0x3e1cb6fa	0.15304175
132	0x3e41a8a7	0.18911992
133	0xbda55837	-0.08073466
134	0xbe05639e	-0.13026282
135	0x3e38aaef	0.18033956
136	0x3e504423	0.20338492
137	0x3da1ac75	0.07894222
138	0x3e96759c	0.29386604
139	0x3e89239d	0.26784983
140	0x3e0f0252	0.13965729
141	0x3e7880ae	0.24267837
142	0xbeaedda8	-0.34153485
143	0x3ee1ab0e	0.44075817
144	0x3f195ba9	0.5990549
145	0xbdf23a53	-0.11827531
146	0x3cd04a86	0.02542616
147	0xbf20d9af	-0.6283216
148	0x3dd3c143	0.10339596
149	0x3ef80e80	0.48448563
150	0xbc2e7235	-0.010647346
151	0x3e6a4163	0.22876506
152	0x3d89bd16	0.067255184
153	0x3d7e23e8	0.06204596
154	0x3e2ffa07	0.17185222
155	0x3d9aa101	0.0755024
156	0x3e5c79f2	0.21530893
157	0xbd6e17e7	-0.058128264
158	0xbf0e1344	-0.55498147
159	0xbee8b54a	-0.45450813
160	0xbe64fbfa	-0.22361746
161	0x3e83195f	0.25605294
162	0x3ce524b4	0.027971603
163	0xbe44997a	-0.19199172
164	0xbe2dd6ae	-0.16976425
165	0xbe985aae	-0.29756683
166	0x3e345808	0.17611706
167	0x3e30416c	0.17212456
168	0x3e9f296b	0.31086287
169	0x3def1b39	0.11675114
170	0xbd4bc343	-0.049746763
171	0x3e82b0b1	0.2552543
172	0x3e9a9e50	0.30198908
173	0x3d9a65d8	0.075389564
174	0x3ec8511d	0.39124385
175	0x3ec40bf0	0.38290358
176	0x3f4752c9	0.77860695
177	0x3ee96aea	0.4558938
178	0xbe520a6e	-0.20511791
179	0xbf261ce1	-0.64887816
180	0x3f0d322a	0.5515467
181	0x3f32e740	0.6988411
182	0xbde9453f	-0.11390161
183	0xbf35d5a9	-0.71029145
184	0xbf6f0e01	-0.93380743
185	0x3ed57a52	0.41694885
186	0x3e9b465a	0.3032711
187	0xbef30010	-0.47460985
188	0xbf14e1a8	-0.58156824
189	0xbf2d025d	-0.6758173
190	0x3ec4e5c5	0.3845655
191	0xbe32c0c9	-0.17456354
192	0xbee7f557	-0.45304367
193	0xbeedadb1	-0.4642158
194	0xbe4e60d2	-0.20154122
195	0x3e21eefa	0.15813819
196	0xbe2e4488	-0.1701833
197	0xbe72d77e	-0.23715016
198	0xbd87148e	-0.06595717
199	0xbd77f9ac	-0.06054084
200	0x3d519e20	0.05117619
201	0xbde48259	-0.11157674
202	0xbec187b9	-0.3779886
203	0xbeae881e	-0.34088224
204	0xbf10a09b	-0.56495064
205	0x3e4ddfd9	0.20104922
206	0x3dbd3a43	0.09239628
207	0xbe7c816c	-0.24658746
208	0xbf20a692	-0.62754166
209	0xbf9a6594	-1.2062249
210	0x3eab9990	0.33515596
211	0x3ed90f8e	0.4239468
212	0x3cba1b2d	0.022718037
213	0xbdcbf519	-0.09958858
214	0xbe85468d	-0.26030388
215	0x3e8d592e	0.276071
216	0x3ed53279	0.4164007
217	0x3ed35079	0.41272333
218	0x3f1e957d	0.6194685
219	0x3edf2aaf	0.43587252
220	0xbda15787	-0.07878023
221	0x3ebd359e	0.3695497
222	0x3e613e2d	0.21996374
223	0x3eef3175	0.4671742
224	0x3ee7c6e5	0.45268932
225	0x3e1c98bf	0.15292643
226	0x3e9e639f	0.3093538
227	0xbdebb8c7	-0.11509853
228	0xbe7ea9b6	-0.24869427
229	0xbe99a62f	-0.300096
230	0x3e073f4a	0.13207737
231	0x3eef6b45	0.46761528
232	0x3d1fa4b7	0.038975444
233	0xbed613b7	-0.41811916
234	0xbe8fcab4	-0.28084338
235	0x3ef3245d	0.4748868
236	0x3ec795c2	0.38981444
237	0xbde20d80	-0.11037731
238	0xbf005149	-0.5012403
239	0xbf05dc14	-0.5228894
240	0x3ed7c1c3	0.42140016
241	0x3f0d7003	0.5524904
242	0xbe7aea06	-0.24503335
243	0xbe67427f	-0.2258396
244	0xbe7e8946	-0.24857053
245	0x3ef89b09	0.48555782
246	0x3ef5afeb	0.47985777
247	0x3e883caf	0.26608798
248	0x3d32d92a	0.043664135
249	0x3d504771	0.05084938

exp_avg f4 [10, 1, 5, 5]
0	0x3c006228	0.007835902
1	0x3b4d3639	0.0031312837
2	0x3ae491f0	0.0017438512
3	0x3b285b42	0.002568916
4	0x3b997e90	0.004684277
5	0x3a4c1d82	0.00077863794
6	0xb952488b	-0.00020054185
7	0x3aa447e9	0.0012533638
8	0x3b77b6f0	0.0037798248
9	0x3bb5d10a	0.005548601
10	0xba7fd703	-0.0009759517
11	0xb9917c0d	-0.0002774898
12	0x3afbdedd	0.0019216199
13	0x3b5d4d5e	0.0033768038
14	0x3b9717cd	0.0046109916
15	0x399fa86e	0.00030452333
16	0x39cd9491	0.00039211338
17	0x397e0462	0.0002422496
18	0x3a81c389	0.0009900193
19	0x3b1a2651	0.0023521374
20	0xbaeb5d12	-0.0017956814
21	0xbb362789	-0.002779456
22	0xbb156a58	-0.0022798982
23	0x39920523	0.00027851117
24	0x3b3ab70f	0.002849046
25	0x3b0187b9	0.0019764735
26	0x3b3b4e5f	0.0028580648
27	0x3b81c233	0.003959918
28	0x3b81ba5f	0.0039589847
29	0x3b40ff1d	0.0029448934
30	0x3b459ffa	0.0030155168
31	0x3b79136b	0.0038005959
32	0x3b85a18f	0.004078097
33	0x3b506fe1	0.0031804966
34	0x3b2b5394	0.0026142346
35	0x3b51364c	0.0031923233
36	0x3b852efa	0.004064438
37	0x3b8091e0	0.0039236397
38	0x3ac02aea	0.0014661227
39	0x3b0b0298	0.0021211263
40	0x3b05e4ae	0.0020430493
41	0x3b1e6c3b	0.0024173397
42	0x3b16d111	0.0023012797
43	0x3a792062	0.00095034216
44	0x3a8f76ae	0.0010945403
45	0x3a944213	0.0011311196
46	0x3b14aae1	0.002268486
47	0x3b1d32c6	0.0023986562
48	0x3aafe1f3	0.0013418779
49	0x3b20fab4	0.0024563493
50	0xba0acc4c	-0.0005294725
51	0x3a844197	0.0010090348
52	0x3abfcc11	0.001463296
53	0x3b6b7d15	0.003593271
54	0x3b75f613	0.0037530705
55	0xbb52b626	-0.0032152026
56	0x391e0795	0.00015070879
57	0x3b75276b	0.0037407528
58	0x3b8c6525	0.0042845183
59	0x3ba6e76c	0.0050935056
60	0xbb4792b0	-0.0030452423
61	0x3abc9d23	0.0014390092
62	0x3bb28edf	0.0054491605
63	0x3bb00442	0.0053716013
64	0x3bac318c	0.00525493
65	0xba1c130d	-0.00059537665
66	0x3b4e39e8	0.003146762
67	0x3ba38932	0.00499072
68	0x3b831551	0.004000344
69	0x3b73944a	0.0037167245
70	0x3ac05825	0.0014674707
71	0x3b41145a	0.0029461593
72	0x3b69d426	0.003567943
73	0x3b25e13a	0.0025311247
74	0x3b664d8c	0.0035141436
75	0x39d13cff	0.00039909032
76	0x3acfa52f	0.0015842075
77	0x3a7483af	0.0009327484
78	0xba0a3256	-0.0005271783
79	0xbab79760	-0.0014006905
80	0x3a3c6667	0.000718689
81	0x39f8691a	0.00047380553
82	0x3a17e0a7	0.00057936687
83	0x3a6e8a62	0.00090996
84	0x3a692434	0.00088936393
85	0x3b3366fe	0.002737462
86	0x3ad9de9b	0.0016622128
87	0x3a5fd6bd	0.00085387734
88	0x3b27e0de	0.002561621
89	0x3adb6c2b	0.0016740611
90	0x3b8a4dd2	0.0042207027
91	0x3b456bd2	0.003012408
92	0x3b6aa73a	0.0035805241
93	0x3b3882ac	0.0028154058
94	0x3b839c14	0.0040164087
95	0x3b5ba487	0.0033514814
96	0x3b8d12a9	0.004305203
97	0x3b9051f0	0.004404299
98	0x3b8ef89c	0.0043631326
99	0x3b94f4b1	0.004545771
100	0x00000000	0.0
101	0x00000000	0.0
102	0x00000004	6e-45
103	0x00000004	6e-45
104	0x00000004	6e-45
105	0x00000000	0.0
106	0x00000000	0.0
107	0x00000000	0.0
108	0x00000004	6e-45
109	0x00000004	6e-45
110	0x00000000	0.0
111	0x00000000	0.0
112	0x00000000	0.0
113	0x00000004	6e-45
114	0x00000004	6e-45
115	0x00000000	0.0
116	0x00000004	6e-45
117	0x00000004	6e-45
118	0x00000004	6e-45
119	0x00000004	6e-45
120	0x00000000	0.0
121	0x00000004	6e-45
122	0x00000004	6e-45
123	0x00000004	6e-45
124	0x00000000	0.0
125	0xbac81516	-0.0015265073
126	0xbb81335b	-0.0039428896
127	0xbbaf5600	-0.005350828
128	0xbba6b3e1	-0.005087361
129	0xbb82de4a	-0.003993784
130	0xbb3f863a	-0.0029224292
131	0xbb8e27cd	-0.0043382407
132	0xbba14a69	-0.0049222005
133	0xbb884d81	-0.00415963
134	0xbb1d822f	-0.0024033894
135	0xbb426f1d	-0.002966828
136	0xbb2be45c	-0.0026228642
137	0xbae86218	-0.001772943
138	0xbb09325d	-0.002093456
139	0xba9a359f	-0.0011765248
140	0xba9225fe	-0.0011150239
141	0x39d8d82c	0.0004135979
142	0x382318f7	3.888548e-05
143	0xb9de5e8e	-0.00042413588
144	0x3ad1ae78	0.001599743
145	0x3b0eff08	0.002181949
146	0x3b3f2c87	0.0029170827
147	0x3b76b74f	0.0037645882
148	0x3ba0c6dc	0.0049065184
149	0x3b613dcc	0.003436911
150	0xbba2cc5c	-0.004968209
151	0xbbb4c691	-0.005516835
152	0xbbc632d2	-0.0060485387
153	0xbb1d624b	-0.0024014886
154	0x3a907269	0.0011020425
155	0xbb6f867d	-0.0036548667
156	0xbbaa9ddb	-0.005206806
157	0xbb88dc81	-0.0041766767
158	0xbab6a54e	-0.0013934763
159	0x3b0d9bb3	0.0021607697
160	0xbaded811	-0.0017001649
161	0xbb2a6f93	-0.0026006445
162	0xba8b9051	-0.0010647868
163	0x3a916d7d	0.0011095252
164	0x3b7daa0a	0.0038706088
165	0xb91120da	-0.00013840516
166	0xb9d89e74	-0.00041316787
167	0x39cf51e3	0.00039543127
168	0x3af9a9af	0.0019047762
169	0x3baada1e	0.00521399
170	0x3a53bbbd	0.00080769864
171	0x3ae4a674	0.0017444626
172	0x3a94262b	0.0011302879
173	0x3ae8659d	0.0017730478
174	0x3b4a4cd4	0.0030868547
175	0x3ac7a9e7	0.001523313
176	0x3a4fc505	0.00079257815
177	0x3a2f5199	0.0006687879
178	0x3a77bd5a	0.0009450518
179	0xba026184	-0.00049736374
180	0xbb73dab6	-0.003720922
181	0xbae8da4c	-0.0017765253
182	0x3a471863	0.00075948815
183	0x3a3434b3	0.0006874308
184	0xb9f07d9c	-0.00045869953
185	0xbb80c892	-0.00393016
186	0xbb4ec094	-0.003154789
187	0x3a12acea	0.0005595224
188	0x3992c931	0.0002799719
189	0xb91603a1	-0.00014306467
190	0xbb82e131	-0.00399413
191	0xbb404b9e	-0.0029341946
192	0xb972c338	-0.00023151643
193	0xb9902436	-0.000274928
194	0xba875bea	-0.0010327075
195	0xbb52e326	-0.0032178848
196	0xbaf3e45a	-0.0018607483
197	0x39fc2bd5	0.00048097843
198	0xb9e75367	-0.00044121893
199	0xbad9ab5d	-0.0016606856
200	0xbbb6fbd6	-0.0055842204
201	0xbbc032f2	-0.005865448
202	0xbb799c29	-0.0038087463
203	0xbab328fe	-0.0013668833
204	0xb92bd3b6	-0.000163867
205	0xbb83c850	-0.004021682
206	0xbb1c954d	-0.00238927
207	0xbae53736	-0.0017487768
208	0xba904332	-0.0011006354
209	0x3ab6f593	0.0013958685
210	0xb99eca1b	-0.0003028669
211	0x39e9f78a	0.00044625654
212	0x3b067a42	0.0020519649
213	0x3b0199c5	0.0019775492
214	0x3b315918	0.002706116
215	0x3adc7f9e	0.0016822701
216	0x3b686950	0.0035463162
217	0x3b63562c	0.0034688814
218	0x3b68719a	0.0035468102
219	0x3b6f1945	0.0036483568
220	0x3b0cf386	0.0021507456
221	0x3b902dc5	0.0043999874
222	0x3bb14382	0.005409659
223	0x3b8a43fb	0.0042195297
224	0x3b4693b9	0.0030300452
225	0x38d330f2	0.00010070381
226	0xbb255d46	-0.0025232597
227	0xbad15554	-0.0015970864
228	0xbb017c8f	-0.001975808
229	0xba9a52a6	-0.0011773899
230	0xbb9f28ce	-0.004857159
231	0xbbfe0086	-0.0077515272
232	0xbb9d8e1e	-0.0048082015
233	0xbb2446bb	-0.0025066573
234	0x38546e7c	5.0647635e-05
235	0xbc104fc4	-0.00880808
236	0xbc1a6050	-0.009422377
237	0xbb802444	-0.003910573
238	0xba9a63e1	-0.0011779034
239	0xba0fca3a	-0.0005485151
240	0xbc520b02	-0.012820007
241	0xbc38e06c	-0.011283975
242	0xbbca5905	-0.0061751627
243	0xbb8857aa	-0.004160841
244	0xbb2e76d5	-0.0026621122
245	0xbc56a180	-0.013100028
246	0xbc4a640f	-0.012352957
247	0xbc3384ab	-0.0109569235
248	0xbc228a0e	-0.00992061
249	0xbc03b136	-0.008037856

exp_avg_sq f4 [10, 1, 5, 5]
0	0x398351d5	0.00025047237
1	0x38b798e5	8.754599e-05
2	0x38aae054	8.148016e-05
3	0x391d24c1	0.00014986379
4	0x39951b95	0.00028440045
5	0x38693105	5.5597182e-05
6	0x3766fb3e	1.3767565e-05
7	0x3835980f	4.329538e-05
8	0x391e96bc	0.00015124207
9	0x39b50cd4	0.00034532568
10	0x374ff24d	1.23945765e-05
11	0x36d81e72	6.440846e-06
12	0x3865dc04	5.480276e-05
13	0x3973e494	0.00023259438
14	0x39e9c53a	0.00044588168
15	0x37cfdea9	2.4780007e-05
16	0x38339cae	4.2822845e-05
17	0x39325e00	0.0001701042
18	0x39e8f579	0.0004443338
19	0x3a17b33f	0.00057869026
20	0x38d107f9	9.9673816e-05
21	0x394584a1	0.00018836792
22	0x39d76b18	0.00041087787
23	0x3a27affc	0.0006396768
24	0x3a28e3d9	0.00064426434
25	0x3968edbe	0.0002221381
26	0x397950e5	0.00023776626
27	0x3997947f	0.00028911603
28	0x39951eb8	0.00028442382
29	0x395d520f	0.00021106772
30	0x393baacb	0.00017897335
31	0x3952b8da	0.00020096023
32	0x39770099	0.00023555978
33	0x396a81e6	0.0002236437
34	0x39225ae2	0.0001548338
35	0x38e46da9	0.00010892313
36	0x38faa88a	0.00011952322
37	0x3909b4fd	0.00013132762
38	0x39065259	0.00012809913
39	0x38ccdfa8	9.769137e-05
40	0x3883aae7	6.2784e-05
41	0x3886177a	6.393991e-05
42	0x38a01376	7.6330194e-05
43	0x38aed631	8.336863e-05
44	0x38a2ba04	7.75941e-05
45	0x3837d2c1	4.382688e-05
46	0x3839a014	4.425652e-05
47	0x387f6369	6.088932e-05
48	0x38a48ba8	7.8461424e-05
49	0x38d79cd9	0.00010281214
50	0x395a6fb6	0.00020831716
51	0x39702228	0.00022900908
52	0x396d4f2c	0.00022631575
53	0x399e4b68	0.0003019229
54	0x39aec093	0.00033331345
55	0x39a2f40c	0.00031080877
56	0x39a78a93	0.00031955968
57	0x399dd0ba	0.00030100887
58	0x39a5db5b	0.00031634685
59	0x3992e1ee	0.0002801562
60	0x39bef2dd	0.0003642057
61	0x39b0868a	0.00033669575
62	0x39982ef6	0.00029026688
63	0x3978c2ce	0.00023723693
64	0x395e1758	0.00021180266
65	0x39a7ff4f	0.00032042942
66	0x39820349	0.0002479798
67	0x392ec7e2	0.00016668395
68	0x38ffd7d9	0.00012199552
69	0x3908dfe4	0.00013053376
70	0x397375d0	0.00023218174
71	0x39274ce8	0.00015955011
72	0x38d4e381	0.00010151324
73	0x38a328e7	7.780064e-05
74	0x38cbb031	9.7126125e-05
75	0x382b031f	4.0772484e-05
76	0x37ebff5a	2.813309e-05
77	0x38baf8ae	8.915491e-05
78	0x3910b0d6	0.00013798787
79	0x391968cf	0.00014630261
80	0x388f9acc	6.8476045e-05
81	0x389ef254	7.579164e-05
82	0x391f8c5a	0.00015215707
83	0x3943fc50	0.00018690643
84	0x3932f194	0.00017065398
85	0x3945968e	0.0001884347
86	0x3962d9ac	0.00021634129
87	0x39891600	0.00026147068
88	0x3988cfad	0.00026094672
89	0x396acb17	0.00022391636
90	0x39b7ff82	0.00035094848
91	0x39c957ec	0.00038403214
92	0x39c75674	0.0003802065
93	0x39ad5905	0.00033063456
94	0x39ac1da4	0.0003282848
95	0x39ca695a	0.00038606935
96	0x39e24825	0.0004315983
97	0x39d6fefb	0.00041007236
98	0x39c84145	0.00038195602
99	0x39fddd1f	0.00048420668
100	0x00000000	0.0
101	0x00000000	0.0
102	0x1a6352c1	4.7009348e-23
103	0x1e8ffe73	1.5245952e-20
104	0x1ebede03	2.0208854e-20
105	0x00000000	0.0
106	0x00000000	0.0
107	0x00000000	0.0
108	0x1b28d4d1	1.3965399e-22
109	0x1b82c093	2.1631144e-22
110	0x00000000	0.0
111	0x00000000	0.0
112	0x00000000	0.0
113	0x189652ee	3.885783e-24
114	0x1a08a529	2.8257556e-23
115	0x00000000	0.0
116	0x1e515d9a	1.1083724e-20
117	0x1c0fa56d	4.752854e-22
118	0x1580d9cf	5.204243e-26
119	0x1a08a529	2.8257556e-23
120	0x00000000	0.0
121	0x1ee195c8	2.388475e-20
122	0x1e9ebf65	1.680806e-20
123	0x15b06750	7.124883e-26
124	0x00000000	0.0
125	0x38cd52f5	9.790614e-05
126	0x392d8484	0.00016547932
127	0x39849661	0.00025289043
128	0x398c8774	0.000268038
129	0x39af26c4	0.00033407484
130	0x38dac259	0.0001043125
131	0x39378912	0.00017503303
132	0x3957de25	0.00020586753
133	0x39608ce0	0.00021414785
134	0x398ff31d	0.0002745622
135	0x391d8935	0.000150238
136	0x3931a5e8	0.0001694184
137	0x39113554	0.00013848144
138	0x3945103d	0.00018793433
139	0x399837c6	0.00029033254
140	0x392c8f33	0.00016456544
141	0x3912e861	0.00014010213
142	0x38d43e0b	0.00010120504
143	0x39637031	0.00021690202
144	0x39adcd19	0.0003314994
145	0x392662c9	0.00015867794
146	0x3901facb	0.00012395826
147	0x38f265c9	0.00011558418
148	0x398af319	0.00026502533
149	0x39bd3b24	0.00036092952
150	0x398d5647	0.00026957897
151	0x39bebcd7	0.0003638032
152	0x39bc6842	0.00035935832
153	0x398e7e9c	0.00027178682
154	0x3981cc2b	0.00024756914
155	0x397ae6b5	0.00023927803
156	0x3991d75a	0.00027817005
157	0x3969c1db	0.00022292828
158	0x390b2a0c	0.00013271737
159	0x3915b685	0.00014277741
160	0x392fb3f0	0.00016756332
161	0x396cc3f6	0.00022579715
162	0x3951da05	0.00020013012
163	0x391f51ba	0.00015193867
164	0x39530b23	0.00020126677
165	0x3918d87e	0.00014576499
166	0x395f5c96	0.00021301428
167	0x3973b627	0.00023242143
168	0x3999158e	0.00029198494
169	0x39b25412	0.00034013443
170	0x392e45a6	0.00016619879
171	0x397cdad1	0.00024114108
172	0x39a1b1fd	0.00030840925
173	0x39c47e70	0.00037478236
174	0x39d4802f	0.00040531295
175	0x399a7333	0.00029459
176	0x39ab79cb	0.00032706404
177	0x395e40dc	0.00021195732
178	0x38ca164b	9.636263e-05
179	0x386e5e39	5.6831374e-05
180	0x39be6d6e	0.00036321155
181	0x39a55960	0.00031537842
182	0x38dc21a9	0.00010496687
183	0x37c3050d	2.3248163e-05
184	0x37446bfa	1.1707651e-05
185	0x39ccb1eb	0.0003904247
186	0x398280ef	0.00024891595
187	0x3891deca	6.9556365e-05
188	0x37702e30	1.4315869e-05
189	0x3741cf0d	1.1551904e-05
190	0x39c77768	0.00038045202
191	0x39611014	0.00021463662
192	0x38a6278c	7.922863e-05
193	0x3821998b	3.852839e-05
194	0x38414d96	4.6087043e-05
195	0x39b4d9bf	0.0003449451
196	0x3971952b	0.0002303912
197	0x390707fa	0.00012877575
198	0x38d2d073	0.00010052407
199	0x38eae37e	0.00011200363
200	0x396f3fb8	0.00022816553
201	0x3974b172	0.00023335757
202	0x391c47df	0.00014904093
203	0x38a39d87	7.8017874e-05
204	0x385b85a3	5.2338128e-05
205	0x3975d5a5	0.0002344461
206	0x39478c4f	0.00019030388
207	0x38de72a4	0.000106071384
208	0x3880e990	6.14702e-05
209	0x38837b18	6.269495e-05
210	0x39722b2c	0.00023095001
211	0x394529c7	0.00018802947
212	0x391900bb	0.00014591489
213	0x391300e2	0.00014019341
214	0x394019b7	0.00018320126
215	0x39617bf7	0.00021503853
216	0x39546832	0.00020256711
217	0x3972d691	0.0002315885
218	0x399ec2b5	0.00030281176
219	0x39b2f090	0.0003413004
220	0x3955fc48	0.00020407245
221	0x397afe6a	0.00023936635
222	0x3999b9f6	0.00029320986
223	0x39bf18cc	0.00036448834
224	0x39be102d	0.00036251676
225	0x39c67bee	0.00037857838
226	0x3a08f3ee	0.00052243366
227	0x39e862d5	0.00044324124
228	0x3994bf2f	0.00028371203
229	0x393aeda0	0.00017826864
230	0x3a0aa496	0.00052888074
231	0x3a22ec96	0.00062150636
232	0x39c715fa	0.00037972612
233	0x3933b2c0	0.0001713736
234	0x38e7dfce	0.00011056625
235	0x3a256a67	0.00063101057
236	0x3a1acd3c	0.0005905216
237	0x398c2787	0.0002673233
238	0x38f95aaf	0.000118901364
239	0x38d99c5e	0.00010376492
240	0x3a3a1bc0	0.0007099472
241	0x3a18c219	0.00058272626
242	0x39945431	0.00028291487
243	0x39467138	0.00018924929
244	0x393e98a3	0.00018176674
245	0x3a40baeb	0.00073520717
246	0x3a26d0d9	0.0006363518
247	0x39e4d44a	0.00043645717
248	0x39a9c1ef	0.00032378684
249	0x399c30d0	0.00029791007

exp_avg_sq f4 [10]
0	0x3eafd167	0.3433945
1	0x3d95712d	0.07296977
2	0x3bcc96c4	0.0062435586
3	0x3e5f2269	0.2179047
4	0xbe5bbc66	-0.21458587
5	0xbc515791	-0.012777225
6	0xbda967e5	-0.082717694
7	0xbe78698b	-0.24259011
8	0xbd84eea7	-0.06490832
9	0xbed78009	-0.4208987

exp_avg f4 [10]
0	0x3bae9243	0.0053274943
1	0x38f4ae0f	0.000116672476
2	0xbbcf582d	-0.00632765
3	0x3bc790ac	0.0060902443
4	0x00000004	6e-45
5	0xbb172ae2	-0.0023066332
6	0x3ad0dc0c	0.001593472
7	0xbba3038c	-0.004974788
8	0x3b8d9057	0.004320185
9	0xbc4e54a4	-0.012593422

exp_avg_sq f4 [10]
0	0x3b2892c5	0.0025722247
1	0x3ab074ed	0.0013462581
2	0x3a8b6fe1	0.0010638201
3	0x3ac417ac	0.0014960668
4	0x1eeedc67	2.5290386e-20
5	0x3a7459eb	0.000932126
6	0x3a3ddeb1	0.00072429614
7	0x3a367c87	0.0006961305
8	0x3a3fe9c5	0.0007320906
9	0x3aa1f158	0.0012355251
